…
r_0.01_decay_0.0005/ckpt_epoch_300.pth', save_folder='exp_caffenetCMC_eval_scratch/calibrated_memory_nce_caffenet_lr_0.001_decay_0.0001_bsz_128_bsz_128_lr_0.01_decay_0.0005', save_freq=5, save_path='exp_caffenetCMC_eval_scratch', scratch=False, seed=None, tb_folder='exp_caffenetCMC_eval_scratch/tb_path/calibrated_memory_nce_caffenet_lr_0.001_decay_0.0001_bsz_128_bsz_128_lr_0.01_decay_0.0005_layer5', tb_freq=500, tb_path='exp_caffenetCMC_eval_scratch/tb_path/', ten_crop=True, weight_decay=0.0005, world_size=-1)
==> loading pre-trained model
==> done
CaffeNet_BN(
  (features): Sequential(
    (0): Conv2d(3, 96, kernel_size=(11, 11), stride=(4, 4), padding=(2, 2))
    (1): ReLU(inplace)
    (2): BatchNorm2d(96, eps=1e-05, momentum=0.1, affine=True, track_running_stats=True)
    (3): MaxPool2d(kernel_size=3, stride=2, padding=0, dilation=1, ceil_mode=False)
    (4): Conv2d(96, 256, kernel_size=(5, 5), stride=(1, 1), padding=(2, 2))
    (5): ReLU(inplace)
    (6): BatchNorm2d(256, eps=1e-05, momentum=0.1, affine=True, track_running_stats=True)
    (7): MaxPool2d(kernel_size=3, stride=2, padding=0, dilation=1, ceil_mode=False)
    (8): Conv2d(256, 384, kernel_size=(3, 3), stride=(1, 1), padding=(1, 1))
    (9): ReLU(inplace)
    (10): BatchNorm2d(384, eps=1e-05, momentum=0.1, affine=True, track_running_stats=True)
    (11): Conv2d(384, 384, kernel_size=(3, 3), stride=(1, 1), padding=(1, 1))
    (12): ReLU(inplace)
    (13): BatchNorm2d(384, eps=1e-05, momentum=0.1, affine=True, track_running_stats=True)
    (14): Conv2d(384, 256, kernel_size=(3, 3), stride=(1, 1), padding=(1, 1))
    (15): ReLU(inplace)
    (16): BatchNorm2d(256, eps=1e-05, momentum=0.1, affine=True, track_running_stats=True)
    (17): MaxPool2d(kernel_size=3, stride=2, padding=0, dilation=1, ceil_mode=False)
  )
  (fc6): Sequential(
    (0): Dropout(p=0.5)
    (1): Linear(in_features=9216, out_features=4096, bias=True)
    (2): ReLU(inplace)
  )
  (fc7): Sequential(
    (0): Dropout(p=0.5)
    (1): Linear(in_features=4096, out_features=4096, bias=True)
  )
  (fc8): Sequential(
    (0): ReLU(inplace)
    (1): Linear(in_features=4096, out_features=101, bias=True)
  )
)
=> loading checkpoint 'exp_caffenetCMC_eval_scratch/calibrated_memory_nce_caffenet_lr_0.001_decay_0.0001_bsz_128_bsz_128_lr_0.01_decay_0.0005/ckpt_epoch_300.pth'
=> loaded checkpoint 'exp_caffenetCMC_eval_scratch/calibrated_memory_nce_caffenet_lr_0.001_decay_0.0001_bsz_128_bsz_128_lr_0.01_decay_0.0005/ckpt_epoch_300.pth' (epoch 300)
[CHANGED Jul 18, 2018] Now RESIZE(INT) keeps the aspect ratio of input!!!
…
